…
mae': [0.0458652303084608], 'smape': [0.1416293093574837]}","([[… 'loss': [0.04802770001697354], 'mse': [0.07859110959300648], 'rmse': [0.0062959575776010265], 'mae': [0.04540647175316968], 'smape': [0.14080101161169356]}, {'loss': [0.04346786496171262], 'mse': [0.07466575151906163], 'rmse': [0.005697071636247321], 'mae': [0.0458652303084608], 'smape': [0.1416293093574837]}, [49.06394577026367], 49.06394577026367, [9.086952924728394, 5.995895862579346], 15.08284878730774, MOMENTPipeline(
  (normalizer): RevIN()
  (tokenizer): Patching()
  (patch_embedding): PatchEmbedding(
    (value_embedding): Linear(in_features=8, out_features=768, bias=False)
    (position_embedding): PositionalEmbedding()
    (dropout): Dropout(p=0.1, inplace=False)
  )
  (encoder): T5Stack(
    (embed_tokens): Embedding(32128, 768)
    (block): ModuleList(
      (0): T5Block(
        (layer): ModuleList(
          (0): T5LayerSelfAttention(
            (SelfAttention): T5Attention(
              (q): Linear(in_features=768, out_features=768, bias=False)
              (k): Linear(in_features=768, out_features=768, bias=False)
              (v): Linear(in_features=768, out_features=768, bias=False)
              (o): Linear(in_features=768, out_features=768, bias=False)
              (relative_attention_bias): Embedding(32, 12)
            )
            (layer_norm): T5LayerNorm()
            (dropout): Dropout(p=0.1, inplace=False)
          )
          (1): T5LayerFF(
            (DenseReluDense): T5DenseGatedActDense(
              (wi_0): Linear(in_features=768, out_features=2048, bias=False)
              (wi_1): Linear(in_features=768, out_features=2048, bias=False)
              (wo): Linear(in_features=2048, out_features=768, bias=False)
              (dropout): Dropout(p=0.1, inplace=False)
              (act): NewGELUActivation()
            )
            (layer_norm): T5LayerNorm()
            (dropout): Dropout(p=0.1, inplace=False)
          )
        )
      )
      (1-11): 11 x T5Block(
        (layer): ModuleList(
          (0): T5LayerSelfAttention(
            (SelfAttention): T5Attention(
              (q): Linear(in_features=768, out_features=768, bias=False)
              (k): Linear(in_features=768, out_features=768, bias=False)
              (v): Linear(in_features=768, out_features=768, bias=False)
              (o): Linear(in_features=768, out_features=768, bias=False)
            )
            (layer_norm): T5LayerNorm()
            (dropout): Dropout(p=0.1, inplace=False)
          )
          (1): T5LayerFF(
            (DenseReluDense): T5DenseGatedActDense(
              (wi_0): Linear(in_features=768, out_features=2048, bias=False)
              (wi_1): Linear(in_features=768, out_features=2048, bias=False)
              (wo): Linear(in_features=2048, out_features=768, bias=False)
              (dropout): Dropout(p=0.1, inplace=False)
              (act): NewGELUActivation()
            )
            (layer_norm): T5LayerNorm()
            (dropout): Dropout(p=0.1, inplace=False)
          )
        )
      )
    )
    (final_layer_norm): T5LayerNorm()
    (dropout): Dropout(p=0.1, inplace=False)
  )
  (head): PretrainHead(
    (dropout): Dropout(p=0.1, inplace=False)
    (linear): Linear(in_features=768, out_features=8, bias=True)
  )
), [12], [17], Empty DataFrame
Columns: [window, error]
Index: [])",0.04802770001697354,0.04346786496171262
small,20,0.15,0.25,5,46.56700015068054,0.048157972953049466,0.07871556178504004,0.006313183802612313,0.0455544899440994,[0.1415616096165383],0.0038220759961404838,0.07466575151906163,0.005697071636247321,0.0458652303084608,0.1416293093574837,[1
…
