…
': [0.04622714364639491], 'smape': [0.1427566775000914]}","([[… 'loss': [0.04355892325111199], 'mse': [0.07468238813606488], 'rmse': [0.005709407564460303], 'mae': [0.04653122668608653], 'smape': [0.1442284382363716]}, {'loss': [0.04356492309307214], 'mse': [0.07468776037592734], 'rmse': [0.005709635501479813], 'mae': [0.04622714364639491], 'smape': [0.1427566775000914]}, [49.926106691360474], 49.926106691360474, [6.003360748291016, 5.943051815032959], 11.946412563323975, MOMENTPipeline(
  (normalizer): RevIN()
  (tokenizer): Patching()
  (patch_embedding): PatchEmbedding(
    (value_embedding): Linear(in_features=8, out_features=1024, bias=False)
    (position_embedding): PositionalEmbedding()
    (dropout): Dropout(p=0.1, inplace=False)
  )
  (encoder): T5Stack(
    (embed_tokens): Embedding(32128, 1024)
    (block): ModuleList(
      (0): T5Block(
        (layer): ModuleList(
          (0): T5LayerSelfAttention(
            (SelfAttention): T5Attention(
              (q): Linear(in_features=1024, out_features=1024, bias=False)
              (k): Linear(in_features=1024, out_features=1024, bias=False)
              (v): Linear(in_features=1024, out_features=1024, bias=False)
              (o): Linear(in_features=1024, out_features=1024, bias=False)
              (relative_attention_bias): Embedding(32, 16)
            )
            (layer_norm): T5LayerNorm()
            (dropout): Dropout(p=0.1, inplace=False)
          )
          (1): T5LayerFF(
            (DenseReluDense): T5DenseGatedActDense(
              (wi_0): Linear(in_features=1024, out_features=2816, bias=False)
              (wi_1): Linear(in_features=1024, out_features=2816, bias=False)
              (wo): Linear(in_features=2816, out_features=1024, bias=False)
              (dropout): Dropout(p=0.1, inplace=False)
              (act): NewGELUActivation()
            )
            (layer_norm): T5LayerNorm()
            (dropout): Dropout(p=0.1, inplace=False)
          )
        )
      )
      (1-23): 23 x T5Block(
        (layer): ModuleList(
          (0): T5LayerSelfAttention(
            (SelfAttention): T5Attention(
              (q): Linear(in_features=1024, out_features=1024, bias=False)
              (k): Linear(in_features=1024, out_features=1024, bias=False)
              (v): Linear(in_features=1024, out_features=1024, bias=False)
              (o): Linear(in_features=1024, out_features=1024, bias=False)
            )
            (layer_norm): T5LayerNorm()
            (dropout): Dropout(p=0.1, inplace=False)
          )
          (1): T5LayerFF(
            (DenseReluDense): T5DenseGatedActDense(
              (wi_0): Linear(in_features=1024, out_features=2816, bias=False)
              (wi_1): Linear(in_features=1024, out_features=2816, bias=False)
              (wo): Linear(in_features=2816, out_features=1024, bias=False)
              (dropout): Dropout(p=0.1, inplace=False)
              (act): NewGELUActivation()
            )
            (layer_norm): T5LayerNorm()
            (dropout): Dropout(p=0.1, inplace=False)
          )
        )
      )
    )
    (final_layer_norm): T5LayerNorm()
    (dropout): Dropout(p=0.1, inplace=False)
  )
  (head): PretrainHead(
    (dropout): Dropout(p=0.1, inplace=False)
    (linear): Linear(in_features=1024, out_features=8, bias=True)
  )
), [12], [9], Empty DataFrame
Columns: [window, error]
Index: [])",0.04355892325111199,0.04356492309307214
small,20,0.15,0.25,5,47.29036259651184,0.04355892325111199,0.07468238813606488,0.005709407564460303,0.04653122668608653,[0.1442284382363716],0.0034957019961439073,0.07468776037592734,0.005709635501479813,0.04622714364639491,0.1427566775000914,[
…
